…
|Def Estimated: [ 9 21 16 38 16]| Att Labels: [ 9 21 17 38 15]|
|Def Amount of true predicted attacks: [ 8 20 15 37 15]|
02/16/2025 10:44:33 - INFO - Model 'attacker_model' saved in: E:\vlad9\Documents\VisualStudioCodeProjects\AE-RL-Python\models/trained-models/2025-02-16-10-10-WIN-attacker-3L-defender-8-lr-0.001/attacker_model.keras
02/16/2025 10:44:33 - INFO - Model summary:
Model: "attacker_model"
_________________________________________________________________
 Layer (type)                Output Shape              Param #   
=================================================================
 dense (Dense)               (None, 100)               12300     
                                                                 
 dense_1 (Dense)             (None, 100)               10100     
                                                                 
 dense_2 (Dense)             (None, 100)               10100     
                                                                 
 dense_3 (Dense)             (None, 23)                2323      
                                                                 
=================================================================
Total params: 34,823
Trainable params: 34,823
Non-trainable params: 0
_________________________________________________________________

02/16/2025 10:44:33 - INFO - Model 'defender_model' saved in: E:\vlad9\Documents\VisualStudioCodeProjects\AE-RL-Python\models/trained-models/2025-02-16-10-10-WIN-attacker-3L-defender-8-lr-0.001/defender_model.keras
02/16/2025 10:44:33 - INFO - Model summary:
Model: "defender_model"
_________________________________________________________________
 Layer (type)                Output Shape              Param #   
=================================================================
 dense_8 (Dense)             (None, 100)               12300     
                                                                 
 dense_9 (Dense)             (None, 100)               10100     
                                                                 
 dense_10 (Dense)            (None, 100)               10100     
                                                                 
 dense_11 (Dense)            (None, 100)               10100     
                                                                 
 dense_12 (Dense)            (None, 100)               10100     
                                                                 
 dense_13 (Dense)            (None, 100)               10100     
                                                                 
 dense_14 (Dense)            (None, 100)               10100     
                                                                 
 dense_15 (Dense)            (None, 100)               10100     
                                                                 
 dense_16 (Dense)            (None, 5)                 505       
                                                                 
=================================================================
Total params: 83,505
Trainable params: 83,505
Non-trainable params: 0
_________________________________________________________________

02/16/2025 10:44:33 - INFO - Saved trained models.
02/16/2025 10:44:33 - INFO - Total runtime: 00:33:40
02/16/2025 10:44:33 - INFO - End of the script at: 2025-02-16 10:44:33.185766
…
02/16/2025 10:44:35 - INFO - Plotted attack distributions during training in: E:\vlad9\Documents\VisualStudioCodeProjects\AE-RL-Python\models/trained-models/2025-02-16-10-10-WIN-attacker-3L-defender-8-lr-0.001/plots/
02/16/2025 10:44:35 - INFO - Start testing the trained model.
02/16/2025 10:44:35 - INFO - Model 'defender_model' loaded from: E:\vlad9\Documents\VisualStudioCodeProjects\AE-RL-Python\models/trained-models/2025-02-16-10-10-WIN-attacker-3L-defender-8-lr-0.001/defender_model.keras
02/16/2025 10:44:35 - INFO - Model summary:
Model: "defender_model"
_________________________________________________________________
 Layer (type)                Output Shape              Param #   
=================================================================
 dense_8 (Dense)             (None, 100)               12300     
                                                                 
 dense_9 (Dense)             (None, 100)               10100     
                                                                 
 dense_10 (Dense)            (None, 100)               10100     
                                                                 
 dense_11 (Dense)            (None, 100)               10100     
                                                                 
 dense_12 (Dense)            (None, 100)               10100     
                                                                 
 dense_13 (Dense)            (None, 100)               10100     
                                                                 
 dense_14 (Dense)            (None, 100)               10100     
                                                                 
 dense_15 (Dense)            (None, 100)               10100     
                                                                 
 dense_16 (Dense)            (None, 5)                 505       
                                                                 
=================================================================
Total params: 83,505
Trainable params: 83,505
Non-trainable params: 0
_________________________________________________________________

02/16/2025 10:44:35 - INFO - Reading formated test data from: E:\vlad9\Documents\VisualStudioCodeProjects\AE-RL-Python\data/datasets/formated/formated_test_adv.csv
…
