…
|Def Estimated: [186 213   0   0   1]| Att Labels: [54 73 89 96 88]|
|Def Amount of true predicted attacks: [53 71  0  0  0]|
03/24/2025 12:50:14 - INFO - Model 'attacker_model_dos' saved in: E:\vlad9\Documents\VisualStudioCodeProjects\AE-RL-Python\models/trained-models/2025-03-24-12-38-WIN-multiple-attackers-att-5L-def-3L-lr-0.001/attacker_model_dos.keras
03/24/2025 12:50:14 - INFO - Model summary:
Model: "attacker_model_dos"
_________________________________________________________________
Layer (type)                 Output Shape              Param #   
=================================================================
dense (Dense)                (None, 100)               12300     
_________________________________________________________________
dense_1 (Dense)              (None, 100)               10100     
_________________________________________________________________
dense_2 (Dense)              (None, 100)               10100     
_________________________________________________________________
dense_3 (Dense)              (None, 100)               10100     
_________________________________________________________________
dense_4 (Dense)              (None, 100)               10100     
_________________________________________________________________
dense_5 (Dense)              (None, 7)                 707       
=================================================================
Total params: 53,407
Trainable params: 53,407
Non-trainable params: 0
_________________________________________________________________

03/24/2025 12:50:14 - INFO - Model 'attacker_model_probe' saved in: E:\vlad9\Documents\VisualStudioCodeProjects\AE-RL-Python\models/trained-models/2025-03-24-12-38-WIN-multiple-attackers-att-5L-def-3L-lr-0.001/attacker_model_probe.keras
03/24/2025 12:50:14 - INFO - Model summary:
Model: "attacker_model_probe"
_________________________________________________________________
Layer (type)                 Output Shape              Param #   
=================================================================
dense_12 (Dense)             (None, 100)               12300     
_________________________________________________________________
dense_13 (Dense)             (None, 100)               10100     
_________________________________________________________________
dense_14 (Dense)             (None, 100)               10100     
_________________________________________________________________
dense_15 (Dense)             (None, 100)               10100     
_________________________________________________________________
dense_16 (Dense)             (None, 100)               10100     
_________________________________________________________________
dense_17 (Dense)             (None, 5)                 505       
=================================================================
Total params: 53,205
Trainable params: 53,205
Non-trainable params: 0
_________________________________________________________________

03/24/2025 12:50:14 - INFO - Model 'attacker_model_probe_r2l' saved in: E:\vlad9\Documents\VisualStudioCodeProjects\AE-RL-Python\models/trained-models/2025-03-24-12-38-WIN-multiple-attackers-att-5L-def-3L-lr-0.001/attacker_model_r2l.keras
03/24/2025 12:50:14 - INFO - Model summary:
Model: "attacker_model_probe_r2l"
_________________________________________________________________
Layer (type)                 Output Shape              Param #   
=================================================================
dense_24 (Dense)             (None, 100)               12300     
_________________________________________________________________
dense_25 (Dense)             (None, 100)               10100     
_________________________________________________________________
dense_26 (Dense)             (None, 100)               10100     
_________________________________________________________________
dense_27 (Dense)             (None, 100)               10100     
_________________________________________________________________
dense_28 (Dense)             (None, 100)               10100     
_________________________________________________________________
dense_29 (Dense)             (None, 9)                 909       
=================================================================
Total params: 53,609
Trainable params: 53,609
Non-trainable params: 0
_________________________________________________________________

03/24/2025 12:50:14 - INFO - Model 'attacker_model_probe_u2r' saved in: E:\vlad9\Documents\VisualStudioCodeProjects\AE-RL-Python\models/trained-models/2025-03-24-12-38-WIN-multiple-attackers-att-5L-def-3L-lr-0.001/attacker_model_u2r.keras
03/24/2025 12:50:14 - INFO - Model summary:
Model: "attacker_model_probe_u2r"
_________________________________________________________________
Layer (type)                 Output Shape              Param #   
=================================================================
dense_36 (Dense)             (None, 100)               12300     
_________________________________________________________________
dense_37 (Dense)             (None, 100)               10100     
_________________________________________________________________
dense_38 (Dense)             (None, 100)               10100     
_________________________________________________________________
dense_39 (Dense)             (None, 100)               10100     
_________________________________________________________________
dense_40 (Dense)             (None, 100)               10100     
_________________________________________________________________
dense_41 (Dense)             (None, 5)                 505       
=================================================================
Total params: 53,205
Trainable params: 53,205
Non-trainable params: 0
_________________________________________________________________

03/24/2025 12:50:14 - INFO - Model 'defender_model' saved in: E:\vlad9\Documents\VisualStudioCodeProjects\AE-RL-Python\models/trained-models/2025-03-24-12-38-WIN-multiple-attackers-att-5L-def-3L-lr-0.001/defender_model.keras
03/24/2025 12:50:14 - INFO - Model summary:
Model: "defender_model"
_________________________________________________________________
Layer (type)                 Output Shape              Param #   
=================================================================
dense_48 (Dense)             (None, 100)               12300     
_________________________________________________________________
dense_49 (Dense)             (None, 100)               10100     
_________________________________________________________________
dense_50 (Dense)             (None, 100)               10100     
_________________________________________________________________
dense_51 (Dense)             (None, 5)                 505       
=================================================================
Total params: 33,005
Trainable params: 33,005
Non-trainable params: 0
_________________________________________________________________

03/24/2025 12:50:14 - INFO - Saved trained models.
03/24/2025 12:50:14 - INFO - Total runtime: 00:11:43
03/24/2025 12:50:14 - INFO - End of the script at: 2025-03-24 12:50:14.287855
…
