…
|Def Amount of true predicted attacks: [ 9 18 17 41 12]|
02/07/2025 20:27:52 - INFO - Model 'attacker_model' saved in: E:\vlad9\Documents\VisualStudioCodeProjects\AE-RL-Python\models/trained-models/2025-02-07-19-58-WIN-attacker-defender-equal-computation-pwr-lr-0.001-more-layers/attacker_model.keras
02/07/2025 20:27:52 - INFO - Model summary:
Model: "attacker_model"
_________________________________________________________________
 Layer (type)                Output Shape              Param #   
=================================================================
 dense (Dense)               (None, 100)               12300     
                                                                 
 dense_1 (Dense)             (None, 100)               10100     
                                                                 
 dense_2 (Dense)             (None, 100)               10100     
                                                                 
 dense_3 (Dense)             (None, 100)               10100     
                                                                 
 dense_4 (Dense)             (None, 100)               10100     
                                                                 
 dense_5 (Dense)             (None, 100)               10100     
                                                                 
 dense_6 (Dense)             (None, 100)               10100     
                                                                 
 dense_7 (Dense)             (None, 100)               10100     
                                                                 
 dense_8 (Dense)             (None, 23)                2323      
                                                                 
=================================================================
Total params: 85,323
Trainable params: 85,323
Non-trainable params: 0
_________________________________________________________________

02/07/2025 20:27:52 - INFO - Model 'defender_model' saved in: E:\vlad9\Documents\VisualStudioCodeProjects\AE-RL-Python\models/trained-models/2025-02-07-19-58-WIN-attacker-defender-equal-computation-pwr-lr-0.001-more-layers/defender_model.keras
02/07/2025 20:27:52 - INFO - Model summary:
Model: "defender_model"
_________________________________________________________________
 Layer (type)                Output Shape              Param #   
=================================================================
 dense_18 (Dense)            (None, 100)               12300     
                                                                 
 dense_19 (Dense)            (None, 100)               10100     
                                                                 
 dense_20 (Dense)            (None, 100)               10100     
                                                                 
 dense_21 (Dense)            (None, 100)               10100     
                                                                 
 dense_22 (Dense)            (None, 100)               10100     
                                                                 
 dense_23 (Dense)            (None, 100)               10100     
                                                                 
 dense_24 (Dense)            (None, 100)               10100     
                                                                 
 dense_25 (Dense)            (None, 100)               10100     
                                                                 
 dense_26 (Dense)            (None, 5)                 505       
                                                                 
=================================================================
Total params: 83,505
Trainable params: 83,505
Non-trainable params: 0
_________________________________________________________________

02/07/2025 20:27:52 - INFO - Saved trained models.
02/07/2025 20:27:52 - INFO - Total runtime: 00:29:07
02/07/2025 20:27:52 - INFO - End of the script at: 2025-02-07 20:27:52.250430
…
02/07/2025 20:27:55 - INFO - Start testing the trained model.
02/07/2025 20:27:55 - INFO - Model 'defender_model' loaded from: E:\vlad9\Documents\VisualStudioCodeProjects\AE-RL-Python\models/trained-models/2025-02-07-19-58-WIN-attacker-defender-equal-computation-pwr-lr-0.001-more-layers/defender_model.keras
02/07/2025 20:27:55 - INFO - Model summary:
Model: "defender_model"
_________________________________________________________________
 Layer (type)                Output Shape              Param #   
=================================================================
 dense_18 (Dense)            (None, 100)               12300     
                                                                 
 dense_19 (Dense)            (None, 100)               10100     
                                                                 
 dense_20 (Dense)            (None, 100)               10100     
                                                                 
 dense_21 (Dense)            (None, 100)               10100     
                                                                 
 dense_22 (Dense)            (None, 100)               10100     
                                                                 
 dense_23 (Dense)            (None, 100)               10100     
                                                                 
 dense_24 (Dense)            (None, 100)               10100     
                                                                 
 dense_25 (Dense)            (None, 100)               10100     
                                                                 
 dense_26 (Dense)            (None, 5)                 505       
                                                                 
=================================================================
Total params: 83,505
Trainable params: 83,505
Non-trainable params: 0
_________________________________________________________________

02/07/2025 20:27:55 - INFO - Reading formated test data from: E:\vlad9\Documents\VisualStudioCodeProjects\AE-RL-Python\data/datasets/formated/formated_test_adv.csv
…
