…
|Def Estimated: [14 27 15 29 15]| Att Labels: [14 27 15 29 15]|
|Def Amount of true predicted attacks: [14 27 15 29 15]|
02/14/2025 14:02:58 - INFO - Model 'attacker_model' saved in: E:\vlad9\Documents\VisualStudioCodeProjects\AE-RL-Python\models/trained-models/2025-02-14-13-30-WIN-attacker-8L-defender-3L-lr-0.001/attacker_model.keras
02/14/2025 14:02:58 - INFO - Model summary:
Model: "attacker_model"
_________________________________________________________________
 Layer (type)                Output Shape              Param #   
=================================================================
 dense (Dense)               (None, 100)               12300     
                                                                 
 dense_1 (Dense)             (None, 100)               10100     
                                                                 
 dense_2 (Dense)             (None, 100)               10100     
                                                                 
 dense_3 (Dense)             (None, 100)               10100     
                                                                 
 dense_4 (Dense)             (None, 100)               10100     
                                                                 
 dense_5 (Dense)             (None, 100)               10100     
                                                                 
 dense_6 (Dense)             (None, 100)               10100     
                                                                 
 dense_7 (Dense)             (None, 100)               10100     
                                                                 
 dense_8 (Dense)             (None, 23)                2323      
                                                                 
=================================================================
Total params: 85,323
Trainable params: 85,323
Non-trainable params: 0
_________________________________________________________________

02/14/2025 14:02:59 - INFO - Model 'defender_model' saved in: E:\vlad9\Documents\VisualStudioCodeProjects\AE-RL-Python\models/trained-models/2025-02-14-13-30-WIN-attacker-8L-defender-3L-lr-0.001/defender_model.keras
02/14/2025 14:02:59 - INFO - Model summary:
Model: "defender_model"
_________________________________________________________________
 Layer (type)                Output Shape              Param #   
=================================================================
 dense_18 (Dense)            (None, 100)               12300     
                                                                 
 dense_19 (Dense)            (None, 100)               10100     
                                                                 
 dense_20 (Dense)            (None, 100)               10100     
                                                                 
 dense_21 (Dense)            (None, 5)                 505       
                                                                 
=================================================================
Total params: 33,005
Trainable params: 33,005
Non-trainable params: 0
_________________________________________________________________

02/14/2025 14:02:59 - INFO - Saved trained models.
02/14/2025 14:02:59 - INFO - Total runtime: 00:32:09
02/14/2025 14:02:59 - INFO - End of the script at: 2025-02-14 14:02:59.018980
…
