…
|Def Estimated: [59 91 88 83 79]| Att Labels: [61 89 87 85 78]|
|Def Amount of true predicted attacks: [57 88 86 81 76]|
05/07/2025 21:53:33 - INFO - Model 'attacker_model_dos' saved in: /workspace/models/trained-models/2025-05-07-20-57-multi-attacker-nsl-def-mem-4000-minibatch-200-1st/attacker_model_dos.keras
05/07/2025 21:53:33 - INFO - Model summary:
Model: "attacker_model_dos"
_________________________________________________________________
 Layer (type)                Output Shape              Param #   
=================================================================
 dense (Dense)               (None, 100)               12300     
                                                                 
 dense_1 (Dense)             (None, 100)               10100     
                                                                 
 dense_2 (Dense)             (None, 100)               10100     
                                                                 
 dense_3 (Dense)             (None, 100)               10100     
                                                                 
 dense_4 (Dense)             (None, 100)               10100     
                                                                 
 dense_5 (Dense)             (None, 7)                 707       
                                                                 
=================================================================
Total params: 53407 (208.62 KB)
Trainable params: 53407 (208.62 KB)
Non-trainable params: 0 (0.00 Byte)
_________________________________________________________________

05/07/2025 21:53:33 - INFO - Model 'attacker_model_probe' saved in: /workspace/models/trained-models/2025-05-07-20-57-multi-attacker-nsl-def-mem-4000-minibatch-200-1st/attacker_model_probe.keras
05/07/2025 21:53:33 - INFO - Model summary:
Model: "attacker_model_probe"
_________________________________________________________________
 Layer (type)                Output Shape              Param #   
=================================================================
 dense_12 (Dense)            (None, 100)               12300     
                                                                 
 dense_13 (Dense)            (None, 100)               10100     
                                                                 
 dense_14 (Dense)            (None, 100)               10100     
                                                                 
 dense_15 (Dense)            (None, 100)               10100     
                                                                 
 dense_16 (Dense)            (None, 100)               10100     
                                                                 
 dense_17 (Dense)            (None, 5)                 505       
                                                                 
=================================================================
Total params: 53205 (207.83 KB)
Trainable params: 53205 (207.83 KB)
Non-trainable params: 0 (0.00 Byte)
_________________________________________________________________

05/07/2025 21:53:33 - INFO - Model 'attacker_model_probe_r2l' saved in: /workspace/models/trained-models/2025-05-07-20-57-multi-attacker-nsl-def-mem-4000-minibatch-200-1st/attacker_model_r2l.keras
05/07/2025 21:53:33 - INFO - Model summary:
Model: "attacker_model_probe_r2l"
_________________________________________________________________
 Layer (type)                Output Shape              Param #   
=================================================================
 dense_24 (Dense)            (None, 100)               12300     
                                                                 
 dense_25 (Dense)            (None, 100)               10100     
                                                                 
 dense_26 (Dense)            (None, 100)               10100     
                                                                 
 dense_27 (Dense)            (None, 100)               10100     
                                                                 
 dense_28 (Dense)            (None, 100)               10100     
                                                                 
 dense_29 (Dense)            (None, 9)                 909       
                                                                 
=================================================================
Total params: 53609 (209.41 KB)
Trainable params: 53609 (209.41 KB)
Non-trainable params: 0 (0.00 Byte)
_________________________________________________________________

05/07/2025 21:53:33 - INFO - Model 'attacker_model_probe_u2r' saved in: /workspace/models/trained-models/2025-05-07-20-57-multi-attacker-nsl-def-mem-4000-minibatch-200-1st/attacker_model_u2r.keras
05/07/2025 21:53:33 - INFO - Model summary:
Model: "attacker_model_probe_u2r"
_________________________________________________________________
 Layer (type)                Output Shape              Param #   
=================================================================
 dense_36 (Dense)            (None, 100)               12300     
                                                                 
 dense_37 (Dense)            (None, 100)               10100     
                                                                 
 dense_38 (Dense)            (None, 100)               10100     
                                                                 
 dense_39 (Dense)            (None, 100)               10100     
                                                                 
 dense_40 (Dense)            (None, 100)               10100     
                                                                 
 dense_41 (Dense)            (None, 5)                 505       
                                                                 
=================================================================
Total params: 53205 (207.83 KB)
Trainable params: 53205 (207.83 KB)
Non-trainable params: 0 (0.00 Byte)
_________________________________________________________________

05/07/2025 21:53:33 - INFO - Model 'defender_model' saved in: /workspace/models/trained-models/2025-05-07-20-57-multi-attacker-nsl-def-mem-4000-minibatch-200-1st/defender_model.keras
05/07/2025 21:53:33 - INFO - Model summary:
Model: "defender_model"
_________________________________________________________________
 Layer (type)                Output Shape              Param #   
=================================================================
 dense_48 (Dense)            (None, 100)               12300     
                                                                 
 dense_49 (Dense)            (None, 100)               10100     
                                                                 
 dense_50 (Dense)            (None, 100)               10100     
                                                                 
 dense_51 (Dense)            (None, 5)                 505       
                                                                 
=================================================================
Total params: 33005 (128.93 KB)
Trainable params: 33005 (128.93 KB)
Non-trainable params: 0 (0.00 Byte)
_________________________________________________________________

05/07/2025 21:53:33 - INFO - Saved trained models.
05/07/2025 21:53:33 - INFO - Total runtime: 00:56:14
…
