…
|Def Estimated: [12 28 15 35 10]| Att Labels: [13 28 15 34 10]|
|Def Amount of true predicted attacks: [12 28 15 34 10]|
02/15/2025 21:38:17 - INFO - Model 'attacker_model' saved in: E:\vlad9\Documents\VisualStudioCodeProjects\AE-RL-Python\models/trained-models/2025-02-15-21-03-WIN-attacker-9L-defender-3L-lr-0.001/attacker_model.keras
02/15/2025 21:38:17 - INFO - Model summary:
Model: "attacker_model"
_________________________________________________________________
 Layer (type)                Output Shape              Param #   
=================================================================
 dense (Dense)               (None, 100)               12300     
                                                                 
 dense_1 (Dense)             (None, 100)               10100     
                                                                 
 dense_2 (Dense)             (None, 100)               10100     
                                                                 
 dense_3 (Dense)             (None, 23)                2323      
                                                                 
=================================================================
Total params: 34,823
Trainable params: 34,823
Non-trainable params: 0
_________________________________________________________________

02/15/2025 21:38:17 - INFO - Model 'defender_model' saved in: E:\vlad9\Documents\VisualStudioCodeProjects\AE-RL-Python\models/trained-models/2025-02-15-21-03-WIN-attacker-9L-defender-3L-lr-0.001/defender_model.keras
02/15/2025 21:38:17 - INFO - Model summary:
Model: "defender_model"
_________________________________________________________________
 Layer (type)                Output Shape              Param #   
=================================================================
 dense_8 (Dense)             (None, 100)               12300     
                                                                 
 dense_9 (Dense)             (None, 100)               10100     
                                                                 
 dense_10 (Dense)            (None, 100)               10100     
                                                                 
 dense_11 (Dense)            (None, 100)               10100     
                                                                 
 dense_12 (Dense)            (None, 100)               10100     
                                                                 
 dense_13 (Dense)            (None, 100)               10100     
                                                                 
 dense_14 (Dense)            (None, 100)               10100     
                                                                 
 dense_15 (Dense)            (None, 100)               10100     
                                                                 
 dense_16 (Dense)            (None, 100)               10100     
                                                                 
 dense_17 (Dense)            (None, 5)                 505       
                                                                 
=================================================================
Total params: 93,605
Trainable params: 93,605
Non-trainable params: 0
_________________________________________________________________

02/15/2025 21:38:17 - INFO - Saved trained models.
02/15/2025 21:38:17 - INFO - Total runtime: 00:34:33
02/15/2025 21:38:17 - INFO - End of the script at: 2025-02-15 21:38:17.923664
…
02/15/2025 21:38:20 - INFO - Plotted attack distributions during training in: E:\vlad9\Documents\VisualStudioCodeProjects\AE-RL-Python\models/trained-models/2025-02-15-21-03-WIN-attacker-9L-defender-3L-lr-0.001/plots/
02/15/2025 21:38:20 - INFO - Start testing the trained model.
02/15/2025 21:38:20 - INFO - Model 'defender_model' loaded from: E:\vlad9\Documents\VisualStudioCodeProjects\AE-RL-Python\models/trained-models/2025-02-15-21-03-WIN-attacker-9L-defender-3L-lr-0.001/defender_model.keras
02/15/2025 21:38:20 - INFO - Model summary:
Model: "defender_model"
_________________________________________________________________
 Layer (type)                Output Shape              Param #   
=================================================================
 dense_8 (Dense)             (None, 100)               12300     
                                                                 
 dense_9 (Dense)             (None, 100)               10100     
                                                                 
 dense_10 (Dense)            (None, 100)               10100     
                                                                 
 dense_11 (Dense)            (None, 100)               10100     
                                                                 
 dense_12 (Dense)            (None, 100)               10100     
                                                                 
 dense_13 (Dense)            (None, 100)               10100     
                                                                 
 dense_14 (Dense)            (None, 100)               10100     
                                                                 
 dense_15 (Dense)            (None, 100)               10100     
                                                                 
 dense_16 (Dense)            (None, 100)               10100     
                                                                 
 dense_17 (Dense)            (None, 5)                 505       
                                                                 
=================================================================
Total params: 93,605
Trainable params: 93,605
Non-trainable params: 0
_________________________________________________________________

02/15/2025 21:38:20 - INFO - Reading formated test data from: E:\vlad9\Documents\VisualStudioCodeProjects\AE-RL-Python\data/datasets/formated/formated_test_adv.csv
…
