…
|Def Amount of true predicted attacks: [11 20 20 32 14]|
02/07/2025 19:55:30 - INFO - Model 'attacker_model' saved in: E:\vlad9\Documents\VisualStudioCodeProjects\AE-RL-Python\models/trained-models/2025-02-07-19-26-WIN-attacker-even-more-computation-power-than-defender-lr-0.001/attacker_model.keras
02/07/2025 19:55:30 - INFO - Model summary:
Model: "attacker_model"
_________________________________________________________________
 Layer (type)                Output Shape              Param #   
=================================================================
 dense (Dense)               (None, 100)               12300     
                                                                 
 dense_1 (Dense)             (None, 100)               10100     
                                                                 
 dense_2 (Dense)             (None, 100)               10100     
                                                                 
 dense_3 (Dense)             (None, 100)               10100     
                                                                 
 dense_4 (Dense)             (None, 100)               10100     
                                                                 
 dense_5 (Dense)             (None, 100)               10100     
                                                                 
 dense_6 (Dense)             (None, 100)               10100     
                                                                 
 dense_7 (Dense)             (None, 100)               10100     
                                                                 
 dense_8 (Dense)             (None, 23)                2323      
                                                                 
=================================================================
Total params: 85,323
Trainable params: 85,323
Non-trainable params: 0
_________________________________________________________________

02/07/2025 19:55:30 - INFO - Model 'defender_model' saved in: E:\vlad9\Documents\VisualStudioCodeProjects\AE-RL-Python\models/trained-models/2025-02-07-19-26-WIN-attacker-even-more-computation-power-than-defender-lr-0.001/defender_model.keras
02/07/2025 19:55:30 - INFO - Model summary:
Model: "defender_model"
_________________________________________________________________
 Layer (type)                Output Shape              Param #   
=================================================================
 dense_18 (Dense)            (None, 100)               12300     
                                                                 
 dense_19 (Dense)            (None, 100)               10100     
                                                                 
 dense_20 (Dense)            (None, 100)               10100     
                                                                 
 dense_21 (Dense)            (None, 5)                 505       
                                                                 
=================================================================
Total params: 33,005
Trainable params: 33,005
Non-trainable params: 0
_________________________________________________________________

02/07/2025 19:55:30 - INFO - Saved trained models.
02/07/2025 19:55:30 - INFO - Total runtime: 00:28:54
02/07/2025 19:55:30 - INFO - End of the script at: 2025-02-07 19:55:30.366662
…
