…
|Def Estimated: [  0   0   0 100   0]| Att Labels: [ 6 24 16 25 29]|
|Def Amount of true predicted attacks: [ 0  0  0 25  0]|
02/12/2025 11:38:51 - INFO - Model 'attacker_model' saved in: E:\vlad9\Documents\VisualStudioCodeProjects\AE-RL-Python\models/trained-models/2025-02-12-11-04-WIN-attacker-5L-defender-42L-lr-0.001/attacker_model.keras
02/12/2025 11:38:51 - INFO - Model summary:
Model: "attacker_model"
_________________________________________________________________
 Layer (type)                Output Shape              Param #   
=================================================================
 dense (Dense)               (None, 100)               12300     
                                                                 
 dense_1 (Dense)             (None, 100)               10100     
                                                                 
 dense_2 (Dense)             (None, 100)               10100     
                                                                 
 dense_3 (Dense)             (None, 100)               10100     
                                                                 
 dense_4 (Dense)             (None, 100)               10100     
                                                                 
 dense_5 (Dense)             (None, 23)                2323      
                                                                 
=================================================================
Total params: 55,023
Trainable params: 55,023
Non-trainable params: 0
_________________________________________________________________

02/12/2025 11:38:51 - INFO - Model 'defender_model' saved in: E:\vlad9\Documents\VisualStudioCodeProjects\AE-RL-Python\models/trained-models/2025-02-12-11-04-WIN-attacker-5L-defender-42L-lr-0.001/defender_model.keras
02/12/2025 11:38:51 - INFO - Model summary:
Model: "defender_model"
_________________________________________________________________
 Layer (type)                Output Shape              Param #   
=================================================================
 dense_12 (Dense)            (None, 100)               12300     
                                                                 
 dense_13 (Dense)            (None, 100)               10100     
                                                                 
 dense_14 (Dense)            (None, 100)               10100     
                                                                 
 dense_15 (Dense)            (None, 100)               10100     
                                                                 
 dense_16 (Dense)            (None, 100)               10100     
                                                                 
 dense_17 (Dense)            (None, 100)               10100     
                                                                 
 dense_18 (Dense)            (None, 100)               10100     
                                                                 
 dense_19 (Dense)            (None, 100)               10100     
                                                                 
 dense_20 (Dense)            (None, 100)               10100     
                                                                 
 dense_21 (Dense)            (None, 100)               10100     
                                                                 
 dense_22 (Dense)            (None, 100)               10100     
                                                                 
 dense_23 (Dense)            (None, 100)               10100     
                                                                 
 dense_24 (Dense)            (None, 100)               10100     
                                                                 
 dense_25 (Dense)            (None, 100)               10100     
                                                                 
 dense_26 (Dense)            (None, 100)               10100     
                                                                 
 dense_27 (Dense)            (None, 100)               10100     
                                                                 
 dense_28 (Dense)            (None, 100)               10100     
                                                                 
 dense_29 (Dense)            (None, 100)               10100     
                                                                 
 dense_30 (Dense)            (None, 100)               10100     
                                                                 
 dense_31 (Dense)            (None, 100)               10100     
                                                                 
 dense_32 (Dense)            (None, 100)               10100     
                                                                 
 dense_33 (Dense)            (None, 100)               10100     
                                                                 
 dense_34 (Dense)            (None, 100)               10100     
                                                                 
 dense_35 (Dense)            (None, 100)               10100     
                                                                 
 dense_36 (Dense)            (None, 100)               10100     
                                                                 
 dense_37 (Dense)            (None, 100)               10100     
                                                                 
 dense_38 (Dense)            (None, 100)               10100     
                                                                 
 dense_39 (Dense)            (None, 100)               10100     
                                                                 
 dense_40 (Dense)            (None, 100)               10100     
                                                                 
 dense_41 (Dense)            (None, 100)               10100     
                                                                 
 dense_42 (Dense)            (None, 100)               10100     
                                                                 
 dense_43 (Dense)            (None, 100)               10100     
                                                                 
 dense_44 (Dense)            (None, 100)               10100     
                                                                 
 dense_45 (Dense)            (None, 100)               10100     
                                                                 
 dense_46 (Dense)            (None, 100)               10100     
                                                                 
 dense_47 (Dense)            (None, 100)               10100     
                                                                 
 dense_48 (Dense)            (None, 100)               10100     
                                                                 
 dense_49 (Dense)            (None, 100)               10100     
                                                                 
 dense_50 (Dense)            (None, 100)               10100     
                                                                 
 dense_51 (Dense)            (None, 100)               10100     
                                                                 
 dense_52 (Dense)            (None, 100)               10100     
                                                                 
 dense_53 (Dense)            (None, 100)               10100     
                                                                 
 dense_54 (Dense)            (None, 5)                 505       
                                                                 
=================================================================
Total params: 426,905
Trainable params: 426,905
Non-trainable params: 0
_________________________________________________________________

02/12/2025 11:38:51 - INFO - Saved trained models.
02/12/2025 11:38:51 - INFO - Total runtime: 00:34:43
02/12/2025 11:38:51 - INFO - End of the script at: 2025-02-12 11:38:51.281661
…
02/12/2025 11:38:54 - INFO - Plotted attack distributions during training in: E:\vlad9\Documents\VisualStudioCodeProjects\AE-RL-Python\models/trained-models/2025-02-12-11-04-WIN-attacker-5L-defender-42L-lr-0.001/plots/
02/12/2025 11:38:54 - INFO - Start testing the trained model.
02/12/2025 11:38:55 - INFO - Model 'defender_model' loaded from: E:\vlad9\Documents\VisualStudioCodeProjects\AE-RL-Python\models/trained-models/2025-02-12-11-04-WIN-attacker-5L-defender-42L-lr-0.001/defender_model.keras
02/12/2025 11:38:55 - INFO - Model summary:
Model: "defender_model"
_________________________________________________________________
 Layer (type)                Output Shape              Param #   
=================================================================
 dense_12 (Dense)            (None, 100)               12300     
                                                                 
 dense_13 (Dense)            (None, 100)               10100     
                                                                 
 dense_14 (Dense)            (None, 100)               10100     
                                                                 
 dense_15 (Dense)            (None, 100)               10100     
                                                                 
 dense_16 (Dense)            (None, 100)               10100     
                                                                 
 dense_17 (Dense)            (None, 100)               10100     
                                                                 
 dense_18 (Dense)            (None, 100)               10100     
                                                                 
 dense_19 (Dense)            (None, 100)               10100     
                                                                 
 dense_20 (Dense)            (None, 100)               10100     
                                                                 
 dense_21 (Dense)            (None, 100)               10100     
                                                                 
 dense_22 (Dense)            (None, 100)               10100     
                                                                 
 dense_23 (Dense)            (None, 100)               10100     
                                                                 
 dense_24 (Dense)            (None, 100)               10100     
                                                                 
 dense_25 (Dense)            (None, 100)               10100     
                                                                 
 dense_26 (Dense)            (None, 100)               10100     
                                                                 
 dense_27 (Dense)            (None, 100)               10100     
                                                                 
 dense_28 (Dense)            (None, 100)               10100     
                                                                 
 dense_29 (Dense)            (None, 100)               10100     
                                                                 
 dense_30 (Dense)            (None, 100)               10100     
                                                                 
 dense_31 (Dense)            (None, 100)               10100     
                                                                 
 dense_32 (Dense)            (None, 100)               10100     
                                                                 
 dense_33 (Dense)            (None, 100)               10100     
                                                                 
 dense_34 (Dense)            (None, 100)               10100     
                                                                 
 dense_35 (Dense)            (None, 100)               10100     
                                                                 
 dense_36 (Dense)            (None, 100)               10100     
                                                                 
 dense_37 (Dense)            (None, 100)               10100     
                                                                 
 dense_38 (Dense)            (None, 100)               10100     
                                                                 
 dense_39 (Dense)            (None, 100)               10100     
                                                                 
 dense_40 (Dense)            (None, 100)               10100     
                                                                 
 dense_41 (Dense)            (None, 100)               10100     
                                                                 
 dense_42 (Dense)            (None, 100)               10100     
                                                                 
 dense_43 (Dense)            (None, 100)               10100     
                                                                 
 dense_44 (Dense)            (None, 100)               10100     
                                                                 
 dense_45 (Dense)            (None, 100)               10100     
                                                                 
 dense_46 (Dense)            (None, 100)               10100     
                                                                 
 dense_47 (Dense)            (None, 100)               10100     
                                                                 
 dense_48 (Dense)            (None, 100)               10100     
                                                                 
 dense_49 (Dense)            (None, 100)               10100     
                                                                 
 dense_50 (Dense)            (None, 100)               10100     
                                                                 
 dense_51 (Dense)            (None, 100)               10100     
                                                                 
 dense_52 (Dense)            (None, 100)               10100     
                                                                 
 dense_53 (Dense)            (None, 100)               10100     
                                                                 
 dense_54 (Dense)            (None, 5)                 505       
                                                                 
=================================================================
Total params: 426,905
Trainable params: 426,905
Non-trainable params: 0
_________________________________________________________________

02/12/2025 11:38:55 - INFO - Reading formated test data from: E:\vlad9\Documents\VisualStudioCodeProjects\AE-RL-Python\data/datasets/formated/formated_test_adv.csv
…
