…
|Def Estimated: [17 22 13 39  9]| Att Labels: [19 22 11 41  7]|
|Def Amount of true predicted attacks: [16 21 10 39  7]|
02/14/2025 12:06:28 - INFO - Model 'attacker_model' saved in: E:\vlad9\Documents\VisualStudioCodeProjects\AE-RL-Python\models/trained-models/2025-02-14-11-31-WIN-attacker-8L-defender-8L-lr-0.001/attacker_model.keras
02/14/2025 12:06:28 - INFO - Model summary:
Model: "attacker_model"
_________________________________________________________________
 Layer (type)                Output Shape              Param #   
=================================================================
 dense (Dense)               (None, 100)               12300     
                                                                 
 dense_1 (Dense)             (None, 100)               10100     
                                                                 
 dense_2 (Dense)             (None, 100)               10100     
                                                                 
 dense_3 (Dense)             (None, 100)               10100     
                                                                 
 dense_4 (Dense)             (None, 100)               10100     
                                                                 
 dense_5 (Dense)             (None, 100)               10100     
                                                                 
 dense_6 (Dense)             (None, 100)               10100     
                                                                 
 dense_7 (Dense)             (None, 100)               10100     
                                                                 
 dense_8 (Dense)             (None, 23)                2323      
                                                                 
=================================================================
Total params: 85,323
Trainable params: 85,323
Non-trainable params: 0
_________________________________________________________________

02/14/2025 12:06:28 - INFO - Model 'defender_model' saved in: E:\vlad9\Documents\VisualStudioCodeProjects\AE-RL-Python\models/trained-models/2025-02-14-11-31-WIN-attacker-8L-defender-8L-lr-0.001/defender_model.keras
02/14/2025 12:06:28 - INFO - Model summary:
Model: "defender_model"
_________________________________________________________________
 Layer (type)                Output Shape              Param #   
=================================================================
 dense_18 (Dense)            (None, 100)               12300     
                                                                 
 dense_19 (Dense)            (None, 100)               10100     
                                                                 
 dense_20 (Dense)            (None, 100)               10100     
                                                                 
 dense_21 (Dense)            (None, 100)               10100     
                                                                 
 dense_22 (Dense)            (None, 100)               10100     
                                                                 
 dense_23 (Dense)            (None, 100)               10100     
                                                                 
 dense_24 (Dense)            (None, 100)               10100     
                                                                 
 dense_25 (Dense)            (None, 100)               10100     
                                                                 
 dense_26 (Dense)            (None, 5)                 505       
                                                                 
=================================================================
Total params: 83,505
Trainable params: 83,505
Non-trainable params: 0
_________________________________________________________________

02/14/2025 12:06:28 - INFO - Saved trained models.
02/14/2025 12:06:28 - INFO - Total runtime: 00:34:33
02/14/2025 12:06:28 - INFO - End of the script at: 2025-02-14 12:06:28.725955
…
02/14/2025 12:06:32 - INFO - Plotted attack distributions during training in: E:\vlad9\Documents\VisualStudioCodeProjects\AE-RL-Python\models/trained-models/2025-02-14-11-31-WIN-attacker-8L-defender-8L-lr-0.001/plots/
02/14/2025 12:06:32 - INFO - Start testing the trained model.
02/14/2025 12:06:32 - INFO - Model 'defender_model' loaded from: E:\vlad9\Documents\VisualStudioCodeProjects\AE-RL-Python\models/trained-models/2025-02-14-11-31-WIN-attacker-8L-defender-8L-lr-0.001/defender_model.keras
02/14/2025 12:06:32 - INFO - Model summary:
Model: "defender_model"
_________________________________________________________________
 Layer (type)                Output Shape              Param #   
=================================================================
 dense_18 (Dense)            (None, 100)               12300     
                                                                 
 dense_19 (Dense)            (None, 100)               10100     
                                                                 
 dense_20 (Dense)            (None, 100)               10100     
                                                                 
 dense_21 (Dense)            (None, 100)               10100     
                                                                 
 dense_22 (Dense)            (None, 100)               10100     
                                                                 
 dense_23 (Dense)            (None, 100)               10100     
                                                                 
 dense_24 (Dense)            (None, 100)               10100     
                                                                 
 dense_25 (Dense)            (None, 100)               10100     
                                                                 
 dense_26 (Dense)            (None, 5)                 505       
                                                                 
=================================================================
Total params: 83,505
Trainable params: 83,505
Non-trainable params: 0
_________________________________________________________________

02/14/2025 12:06:32 - INFO - Reading formated test data from: E:\vlad9\Documents\VisualStudioCodeProjects\AE-RL-Python\data/datasets/formated/formated_test_adv.csv
…
