…
|Def Estimated: [18 25 14 28 15]| Att Labels: [20 24 13 28 15]|
|Def Amount of true predicted attacks: [17 24 12 26 11]|
02/15/2025 20:00:10 - INFO - Model 'attacker_model' saved in: E:\vlad9\Documents\VisualStudioCodeProjects\AE-RL-Python\models/trained-models/2025-02-15-19-23-WIN-attacker-5L-defender-15L-lr-0.001/attacker_model.keras
02/15/2025 20:00:10 - INFO - Model summary:
Model: "attacker_model"
_________________________________________________________________
 Layer (type)                Output Shape              Param #   
=================================================================
 dense (Dense)               (None, 100)               12300     
                                                                 
 dense_1 (Dense)             (None, 100)               10100     
                                                                 
 dense_2 (Dense)             (None, 100)               10100     
                                                                 
 dense_3 (Dense)             (None, 100)               10100     
                                                                 
 dense_4 (Dense)             (None, 100)               10100     
                                                                 
 dense_5 (Dense)             (None, 23)                2323      
                                                                 
=================================================================
Total params: 55,023
Trainable params: 55,023
Non-trainable params: 0
_________________________________________________________________

02/15/2025 20:00:10 - INFO - Model 'defender_model' saved in: E:\vlad9\Documents\VisualStudioCodeProjects\AE-RL-Python\models/trained-models/2025-02-15-19-23-WIN-attacker-5L-defender-15L-lr-0.001/defender_model.keras
02/15/2025 20:00:10 - INFO - Model summary:
Model: "defender_model"
_________________________________________________________________
 Layer (type)                Output Shape              Param #   
=================================================================
 dense_12 (Dense)            (None, 100)               12300     
                                                                 
 dense_13 (Dense)            (None, 100)               10100     
                                                                 
 dense_14 (Dense)            (None, 100)               10100     
                                                                 
 dense_15 (Dense)            (None, 100)               10100     
                                                                 
 dense_16 (Dense)            (None, 100)               10100     
                                                                 
 dense_17 (Dense)            (None, 100)               10100     
                                                                 
 dense_18 (Dense)            (None, 100)               10100     
                                                                 
 dense_19 (Dense)            (None, 100)               10100     
                                                                 
 dense_20 (Dense)            (None, 100)               10100     
                                                                 
 dense_21 (Dense)            (None, 100)               10100     
                                                                 
 dense_22 (Dense)            (None, 100)               10100     
                                                                 
 dense_23 (Dense)            (None, 100)               10100     
                                                                 
 dense_24 (Dense)            (None, 100)               10100     
                                                                 
 dense_25 (Dense)            (None, 100)               10100     
                                                                 
 dense_26 (Dense)            (None, 100)               10100     
                                                                 
 dense_27 (Dense)            (None, 5)                 505       
                                                                 
=================================================================
Total params: 154,205
Trainable params: 154,205
Non-trainable params: 0
_________________________________________________________________

02/15/2025 20:00:10 - INFO - Saved trained models.
02/15/2025 20:00:10 - INFO - Total runtime: 00:36:22
02/15/2025 20:00:10 - INFO - End of the script at: 2025-02-15 20:00:10.150341
…
02/15/2025 20:00:12 - INFO - Plotted attack distributions during training in: E:\vlad9\Documents\VisualStudioCodeProjects\AE-RL-Python\models/trained-models/2025-02-15-19-23-WIN-attacker-5L-defender-15L-lr-0.001/plots/
02/15/2025 20:00:12 - INFO - Start testing the trained model.
02/15/2025 20:00:13 - INFO - Model 'defender_model' loaded from: E:\vlad9\Documents\VisualStudioCodeProjects\AE-RL-Python\models/trained-models/2025-02-15-19-23-WIN-attacker-5L-defender-15L-lr-0.001/defender_model.keras
02/15/2025 20:00:13 - INFO - Model summary:
Model: "defender_model"
_________________________________________________________________
 Layer (type)                Output Shape              Param #   
=================================================================
 dense_12 (Dense)            (None, 100)               12300     
                                                                 
 dense_13 (Dense)            (None, 100)               10100     
                                                                 
 dense_14 (Dense)            (None, 100)               10100     
                                                                 
 dense_15 (Dense)            (None, 100)               10100     
                                                                 
 dense_16 (Dense)            (None, 100)               10100     
                                                                 
 dense_17 (Dense)            (None, 100)               10100     
                                                                 
 dense_18 (Dense)            (None, 100)               10100     
                                                                 
 dense_19 (Dense)            (None, 100)               10100     
                                                                 
 dense_20 (Dense)            (None, 100)               10100     
                                                                 
 dense_21 (Dense)            (None, 100)               10100     
                                                                 
 dense_22 (Dense)            (None, 100)               10100     
                                                                 
 dense_23 (Dense)            (None, 100)               10100     
                                                                 
 dense_24 (Dense)            (None, 100)               10100     
                                                                 
 dense_25 (Dense)            (None, 100)               10100     
                                                                 
 dense_26 (Dense)            (None, 100)               10100     
                                                                 
 dense_27 (Dense)            (None, 5)                 505       
                                                                 
=================================================================
Total params: 154,205
Trainable params: 154,205
Non-trainable params: 0
_________________________________________________________________

02/15/2025 20:00:13 - INFO - Reading formated test data from: E:\vlad9\Documents\VisualStudioCodeProjects\AE-RL-Python\data/datasets/formated/formated_test_adv.csv
…
